…
    vgg_weight: 1000.0
    val_epoch: 1
    manual_seed: 0
    loss_form: sym
  ]
  logger:[
    print_freq: 40
    save_checkpoint_epoch: 1
  ]
  is_train: True
  dist: False

26-05-22 13:57:50.726 - INFO: Random seed: 0
26-05-22 13:57:50.750 - INFO: Dataset [DatasetFromFolder - UEN] is created.
26-05-22 13:57:50.751 - INFO: Number of train images: 11,037, iters: 345
26-05-22 13:57:50.751 - INFO: Total epochs needed: 50 for iters 17,250
26-05-22 13:57:51.027 - INFO: Network G structure: DataParallel - SeeInDark, with parameters: 7,816,883
26-05-22 13:57:51.027 - INFO: SeeInDark(
  (conv1_1): AttING(
    (conv1): Conv2d(3, 32, kernel_size=(1, 1), stride=(1, 1), bias=False)
    (conv2_1): Conv2d(32, 32, kernel_size=(3, 3), stride=(1, 1), padding=(1, 1), bias=False)
    (conv2_2): Conv2d(32, 32, kernel_size=(3, 3), stride=(1, 1), padding=(1, 1), bias=False)
    (instance): InstanceNorm2d(32, eps=1e-05, momentum=0.1, affine=True, track_running_stats=False)
    (interative): Sequential(
      (0): Conv2d(64, 32, kernel_size=(3, 3), stride=(1, 1), padding=(1, 1), bias=False)
      (1): LeakyReLU(negative_slope=0.1)
      (2): Sigmoid()
    )
    (act): LeakyReLU(negative_slope=0.1)
    (avgpool): AdaptiveAvgPool2d(output_size=1)
    (process): Sequential(
      (0): Conv2d(64, 16, kernel_size=(3, 3), stride=(1, 1), padding=(1, 1))
      (1): LeakyReLU(negative_slope=0.1)
      (2): Conv2d(16, 64, kernel_size=(3, 3), stride=(1, 1), padding=(1, 1))
      (3): Sigmoid()
    )
    (conv1x1): Conv2d(64, 32, kernel_size=(1, 1), stride=(1, 1))
  )
  (conv1_2): Conv2d(32, 32, kernel_size=(3, 3), stride=(1, 1), padding=(1, 1))
  (pool1): MaxPool2d(kernel_size=2, stride=2, padding=0, dilation=1, ceil_mode=False)
  (conv2_1): Conv2d(32, 64, kernel_size=(3, 3), stride=(1, 1), padding=(1, 1))
  (conv2_2): Conv2d(64, 64, kernel_size=(3, 3), stride=(1, 1), padding=(1, 1))
  (pool2): MaxPool2d(kernel_size=2, stride=2, padding=0, dilation=1, ceil_mode=False)
  (conv3_1): Conv2d(64, 128, kernel_size=(3, 3), stride=(1, 1), padding=(1, 1))
  (conv3_2): Conv2d(128, 128, kernel_size=(3, 3), stride=(1, 1), padding=(1, 1))
  (pool3): MaxPool2d(kernel_size=2, stride=2, padding=0, dilation=1, ceil_mode=False)
  (conv4_1): Conv2d(128, 256, kernel_size=(3, 3), stride=(1, 1), padding=(1, 1))
  (conv4_2): Conv2d(256, 256, kernel_size=(3, 3), stride=(1, 1), padding=(1, 1))
  (pool4): MaxPool2d(kernel_size=2, stride=2, padding=0, dilation=1, ceil_mode=False)
  (conv5_1): Conv2d(256, 512, kernel_size=(3, 3), stride=(1, 1), padding=(1, 1))
  (conv5_2): Conv2d(512, 512, kernel_size=(3, 3), stride=(1, 1), padding=(1, 1))
  (upv6): ConvTranspose2d(512, 256, kernel_size=(2, 2), stride=(2, 2))
  (conv6_1): Conv2d(512, 256, kernel_size=(3, 3), stride=(1, 1), padding=(1, 1))
  (conv6_2): Conv2d(256, 256, kernel_size=(3, 3), stride=(1, 1), padding=(1, 1))
  (upv7): ConvTranspose2d(256, 128, kernel_size=(2, 2), stride=(2, 2))
  (conv7_1): Conv2d(256, 128, kernel_size=(3, 3), stride=(1, 1), padding=(1, 1))
  (conv7_2): Conv2d(128, 128, kernel_size=(3, 3), stride=(1, 1), padding=(1, 1))
  (upv8): ConvTranspose2d(128, 64, kernel_size=(2, 2), stride=(2, 2))
  (conv8_1): Conv2d(128, 64, kernel_size=(3, 3), stride=(1, 1), padding=(1, 1))
  (conv8_2): Conv2d(64, 64, kernel_size=(3, 3), stride=(1, 1), padding=(1, 1))
  (upv9): ConvTranspose2d(64, 32, kernel_size=(2, 2), stride=(2, 2))
  (conv9_1): Conv2d(64, 32, kernel_size=(3, 3), stride=(1, 1), padding=(1, 1))
  (conv9_2): Conv2d(32, 32, kernel_size=(3, 3), stride=(1, 1), padding=(1, 1))
  (conv10_1): Conv2d(32, 3, kernel_size=(1, 1), stride=(1, 1))
)
26-05-22 13:57:51.027 - INFO: Loading model for G [/workspace/project/DocuImaEnhance/ckpts/symmetric_47_G.pth] ...
26-05-22 13:57:51.058 - INFO: Initial Importance and Stars with zeros!!!!!!!!!!!!!!!!!!!!!!!!!!!!!!!!!!!!!!!!!!!
26-05-22 13:57:51.092 - INFO: Loading model for WarmUp G [/workspace/project/DocuImaEnhance/ckpts/symmetric_47_G.pth] ...
26-05-22 13:57:51.110 - INFO: Model [multitask_Barlow_model] is created.
…
